Lidar/Detection/models/lstm_detector.pt (torch, 80772 bytes, 5 tensors)

lstm.weight_ih_l0 f4 [256, 10]
0.09433046 -0.13724959 0.053555552 -0.11626129 0.120904684 -0.008434557 -0.06057255 -0.16669983
-0.13904947 0.025563672 -0.033454012 0.052593935 0.05132642 -0.15128805 0.05076554 -0.09212086
0.07383469 -0.046797086 0.18362913 -0.036123805 0.014125412 -0.021890761 -0.023715239 0.1849184
0.10664491 0.0343 0.022043766 0.2139736 -0.11108503 0.08311215 -0.036617666 -0.09912097
-0.06014008 -0.2265849 -0.013909339 -0.043883767 0.035982996 -0.16619033 -0.004663711 0.12753941
-0.02969326 0.10704964 -0.061112106 0.13314298 -0.10772145 0.05474722 0.09641058 0.08930402
0.23015666 -0.09605968 0.033265207 0.035490237 -0.08514342 -0.042185318 -0.009239365 0.087837264
0.12518291 0.05573751 0.09661927 0.1338565 -0.034689564 0.21578859 -0.12958251 0.265315
-0.0569964 0.011789737 0.08281286 0.17138183 0.0511788 0.10080956 0.07982664 -0.009909775
0.027414 -0.06221783 0.08231228 0.059686854 -0.030181326 0.05547964 0.0068043354 0.07932811
0.07337915 -0.10397 -0.010818418 -0.05146258 0.021072485 0.042404898 -0.054957554 0.13499127
0.08447683 0.02175571 0.05598038 0.015201732 0.10447519 -0.2724333 -0.07106936 -0.112989545
0.034052536 -0.063627265 -0.0778048 -0.23906799 0.18510869 0.115898274 -0.0014148249 0.057694215
-0.04328178 -0.0022450224 -0.14884242 0.014733994 -0.059887085 -0.010362876 -0.029754 0.1345351
-0.20025189 0.19490322 -0.020357339 0.19024524 -0.087822534 0.062000412 -0.07559079 0.25274408
0.07968398 0.06277235 0.06345336 0.10201899 0.034908574 0.16286069 0.06961268 0.106541075
-0.030442676 0.032257363 -0.040900685 0.12539227 0.043054856 -0.10893806 0.13023542 -0.10250466
0.17867641 -0.06291793 -0.11509631 -0.07816186 0.10153199 0.100419044 0.081302576 -0.13245963
-0.058622446 -0.083478495 0.13990729 -0.011342776 -0.02620565 0.114574514 0.035563383 -0.098093174
-0.035951845 -0.0704914 0.042992096 0.010484387 -0.10882086 0.08486401 -0.029615426 0.11239803
0.050739024 0.039653208 -0.1459411 0.3447142 0.10938532 -0.049362015 -0.060260177 -0.083906785
0.063820176 0.042394303 0.08404418 0.10391305 -0.1472728 -0.13262166 0.052341867 -0.08662468
0.19928744 -0.011533366 0.13038379 0.04514681 0.05919459 0.06624807 -0.075002134 -0.2019091
-0.030974237 -0.059896756 0.09061016 -0.062132854 0.17094982 -0.08605646 0.07309075 0.41712946
-0.24048147 0.25247934 -0.025274992 0.26784366 0.3226112 0.16597547 -0.04926482 0.07377505
-0.07824645 0.12432411 -0.06922779 0.14159855 0.1282221 0.07422358 0.04406045 -0.093583554
0.11784435 -0.0020583 -0.065575376 -0.04023149 0.06971025 0.032555073 -0.008433561 0.020890241
0.05360343 0.21555956 0.030275393 -0.13998659 -0.21629225 0.21906914 0.020250248 -0.053692237
0.07968362 -0.12561601 0.12333391 -0.13767949 0.11421506 0.0940483 -0.0368469 -0.046887625
0.10726985 0.08662162 0.09548341 0.0038932029 -0.070305385 -0.067518815 -0.040114388 -0.04734616
-0.08968479 -0.109247334 0.059518285 0.10360393 0.13752066 0.10806303 0.05162278 0.09651469
0.07505768 0.116249554 0.0011605532 0.026110394 -0.023371935 -0.060353637 0.10402798 -0.013527464
00000000: 5430 c13d 288b 0cbe 115d 5b3d 661a eebd
00000010: e09c f73d 1931 0abc ec1a 78bd 5cb3 2abe
00000020: fc62 0ebe e86a d13c 1307 09bd bd6c 573d
00000030: a73b 523d 41eb 1abe 87ef 4f3d dda9 bcbd
00000040: a436 973d 4dae 3fbd 4609 3c3e 8ef6 13bd
00000050: 466e 673c 4154 b3bc 7646 c2bc 405b 3d3e
00000060: a668 da3d 287e 0c3d 2195 b43c e51b 5b3e
00000070: 8c80 e3bd b436 aa3d 68fc 15bd efff cabd
00000080: 7255 76bd df05 68be ffe3 63bc 77bf 33bd
00000090: e862 133d cc2d 2abe 0bd2 98bb b199 023e
000000a0: 483f f3bc d73c db3d b050 7abd a256 083e
000000b0: 109d dcbd 9f3e 603d e972 c53d 07e5 b63d
000000c0: 30ae 6b3e f0ba c4bd 1941 083d 365e 113d
000000d0: ac5f aebd 83ca 2cbd b560 17bc 06e4 b33d
000000e0: f32f 003e 044d 643d 53e0 c53d ae11 093e
000000f0: a516 0ebd aff7 5c3e 47b1 04be 5ed7 873e
00000100: 0f75 69bd be29 413c ca99 a93d b87e 2f3e
00000110: dda0 513d 3e75 ce3d 267c a33d 9c5c 22bc
00000120: 5393 e03c 20d8 7ebd 5793 a83d 347a 743d
00000130: d43e f7bc 9e3e 633d e7f6 de3b c776 a23d
00000140: cf47 963d 39ee d4bd bc3f 31bc 6dca 52bd
00000150: 34a0 ac3c c2b0 2d3d 2c1b 61bd 273b 0a3e
00000160: 3002 ad3d 0839 b23c af4b 653d af10 793c
00000170: 17f7 d53d 617c 8bbe d08c 91bd 1067 e7bd
00000180: ac7a 0b3d 034f 82bd 1f58 9fbd 3dce 74be
00000190: 228d 3d3e 135c ed3d a571 b9ba c550 6c3d
000001a0: 3c48 31bd 3a21 13bb 266a 18be da66 713c
000001b0: 294c 75bd 0dc9 29bc a9be f3bc 92c3 093e
000001c0: d50e 4dbe b694 473e 6fc4 a6bc a6cf 423e
000001d0: 4ddc b3bd 25f4 7d3d 58cf 9abd ac67 813e
000001e0: 5b31 a33d ca8e 803d d6f3 813d 55ef d03d
000001f0: 4bfc 0e3d f4c4 263e 1891 8e3d 3532 da3d
00000200: eb62 f9bc 4c20 043d 7a87 27bd d566 003e
00000210: 4a5a 303d eb1a dfbd 6f5c 053e f7ed d1bd
00000220: f3f6 363e 1edb 80bd 9db7 ebbd 5313 a0bd
00000230: 01f0 cf3d 80a8 cd3d f781 a63d 7fa3 07be
00000240: 171e 70bd c6f6 aabd db43 0f3e 0dd7 39bc
00000250: 3bad d6bc 0ba6 ea3d e9aa 113d 13e5 c8bd
00000260: 3e42 13bd cc5d 90bd 7b18 303d b5c6 2b3c
00000270: 79dd debd 2fcd ad3d 0d9c f2bc f030 e63d
00000280: b9d3 4f3d 676b 223d 9571 15be 617e b03e
00000290: 6905 e03d d32f 4abd 60d3 76bd 52d7 abbd
000002a0: 27b4 823d a6a5 2d3d 5b1f ac3d 5dd0 d43d
000002b0: aece 16be f9cd 07be 6d64 563d 4868 b1bd
000002c0: 0212 4c3e 71f6 3cbc 5483 053e ddeb 383d
000002d0: 0776 723d 11ad 873d b89a 99bd 42c1 4ebe
000002e0: afbd fdbc 4d56 75bd d291 b93d 057f 7ebd
000002f0: 780d 2f3e 5f3e b0bd 9ab0 953d fe91 d53e
00000300: c640 76be f944 813e 800d cfbc ce22 893e
00000310: 4c2d a53e 79f5 293e e8c9 49bd 6017 973d
00000320: ad3f a0bd a49d fe3d 4dc7 8dbd 36ff 103e
00000330: a74c 033e 8802 983d bb78 343d bca8 bfbd
00000340: 6158 f13d 8be4 06bb 624c 86bd c6c9 24bd
00000350: 3fc4 8e3d 7858 053d eb2c 0abc 0322 ab3c
00000360: 458f 5b3d a5bb 5c3e 1a04 f83c a558 0fbe
00000370: b77b 5dbe a953 603e d9e3 a53c 64ec 5bbd
00000380: 2a31 a33d 7ca1 00be 7d96 fc3d dafb 0cbe
00000390: 96e9 e93d 659c c03d c6ec 16bd 3d0d 40bd
000003a0: 4cb0 db3d ad66 b13d ce8c c33d 1b25 7f3b
000003b0: 45fc 8fbd 4e47 8abd fc4e 24bd 0cee 41bd
000003c0: a9ac b7bd 11bd dfbd 72c9 733d 4c2e d43d
000003d0: 37d2 0c3e 2650 dd3d 6872 533d 7ea9 c53d
000003e0: d7b7 993d 3f14 ee3d b41d 983a 77e5 d53c
000003f0: 8076 bfbc 6035 77bd 9f0c d53d 4ca2 5dbc

lstm.weight_hh_l0 f4 [256, 64]
-0.12548283 -0.07575061 0.03548223 0.027541101 -0.0501224 0.028013714 0.03341024 -0.10292114
-0.12181705 -0.022940574 0.13702092 -0.103149675 0.17633425 0.11211191 -0.09867602 -0.13851684
-0.14532775 0.18811697 -0.13859013 0.09793142 0.06097504 -0.13940872 0.035439465 -0.12823743
-0.008191299 -0.18415526 -0.09948086 0.008842881 0.12969483 0.121203735 0.042926073 0.1527374
0.18981034 -0.033224568 -0.10914864 -0.042024348 -0.00018125385 0.057866007 0.0026111049 0.08641005
0.15693063 -0.09505852 -0.011130424 0.20097198 0.030069146 -0.039037127 0.08779765 0.037682924
0.055058844 -0.045276932 -0.035055816 0.0042640385 -0.075163886 0.0039456524 -0.12581113 -0.11283162
0.07036353 -0.19547942 -0.027533377 0.009596592 0.15996873 0.039464198 -0.105383664 0.083195865
-0.06784065 0.050667103 0.010105192 -0.09319827 -0.0132664 0.13047792 -0.07044009 -0.13475856
-0.07579331 0.049449723 0.0052456716 -0.038789704 -0.0028732342 0.0522375 -0.12132984 -0.14463352
0.06861159 0.056349047 -0.034185134 -0.037414066 -0.09661997 -0.0794265 -0.1158741 -0.13581082
0.02158854 -0.14193474 0.012194458 0.010570112 -0.027611678 -0.010677303 -0.10227823 -0.0012755685
0.1363817 -0.072518945 -0.16846593 0.057067998 -0.087532185 -0.08568778 -0.008056262 0.16270588
-0.043889962 -0.12466433 -0.12102665 0.14753182 -0.069583386 0.052365933 0.090803355 -0.029561233
0.0022322854 0.084010325 0.13273124 -0.1600881 -0.14830312 0.049678136 -0.2094859 -0.015714388
0.14408368 0.03023119 0.07788512 -0.02118257 0.15157355 0.041601256 0.021425474 0.062465392
-0.11168711 0.113434754 -0.005448656 0.16111408 0.070066854 -0.037550163 -0.17197493 -0.039032493
-0.101253375 -0.10727402 -0.07084009 -0.09124477 0.18499771 0.17501251 -0.08737839 -0.094493024
-0.2160219 0.14976263 -0.046741102 0.04966395 -0.17691581 -0.14438075 0.05213547 -0.097010344
-0.02494962 -0.05196137 -0.31035843 -0.13870825 -0.005575461 0.06258407 -0.22327924 0.08272073
0.01924096 0.07673531 -0.11792735 -0.07364735 -0.016513359 -0.056887686 0.2266654 -0.016093181
0.10035839 0.059294213 0.050548457 0.28230768 -0.1351511 -0.06341717 0.042459574 -0.010347309
0.088665225 0.08466368 0.17556569 -0.087708734 0.05371745 -0.05310951 0.13382982 -0.08672175
0.034505073 -0.09778045 0.21389438 -0.06346842 0.14921306 -0.12973225 -0.24560276 0.06053966
0.0061139883 0.09107684 0.07634541 0.062526464 0.021305993 0.002686317 -0.092907526 -0.11334631
0.09302128 0.28911543 -0.091813765 -0.06507955 0.057459798 0.05942054 -0.11422508 -0.108100176
0.16757889 -0.027056912 0.15215978 -0.1786224 -0.060021173 0.07094767 0.12626456 -0.087909296
-0.0948723 0.032085698 -0.09398022 -0.14792243 0.035722997 0.014167891 -0.17115666 0.12188405
0.050871003 -0.26971602 -0.17282303 -0.23461644 0.13342682 0.0004318274 0.0805668 -0.07850911
-0.033700723 -0.07258558 -0.010024139 -0.1386937 -0.030635124 0.16763286 0.037965637 0.26966816
0.22612527 -0.004521759 0.014560899 -0.1410747 -0.25246903 -0.0623726 -0.10955653 0.04305382
0.0872043 -0.16060893 0.10591933 -0.04572693 -0.11628821 -0.1252686 -0.102892764 0.18977876
00000000: 927e 00be 2323 9bbd d155 113d e09d e13c
00000010: 254d 4dbd 047d e53c 2dd9 083d 52c8 d2bd
00000020: 387b f9bd dfed bbbc 364f 0c3e 2340 d3bd
00000030: f790 343e ee9a e53d a716 cabd 5cd7 0dbe
00000040: ccd0 14be bca1 403e 92ea 0dbe 4590 c83d
00000050: f7c0 793d 29c1 0ebe f928 113d ac50 03be
00000060: cc34 06bc 3293 3cbe 9fbc cbbd bbe1 103c
00000070: b9ce 043e aa39 f83d 40d3 2f3d 3167 1c3e
00000080: a45d 423e 7c16 08bd 5289 dfbd b921 2cbd
00000090: f60e 3eb9 e804 6d3d 121f 2b3b c1f7 b03d
000000a0: 6cb2 203e 0bae c2bd 625c 36bc 99cb 4d3e
000000b0: 9253 f63c 65e5 1fbd 41cf b33d 6959 1a3d
000000c0: 6285 613d 4e74 39bd b096 0fbd 59b9 8b3b
000000d0: 86ef 99bd 884a 813b a2d4 00be 4414 e7bd
000000e0: c11a 903d c22b 48be ad8d e1bc 063b 1d3c
000000f0: d8ce 233e 36a5 213d 64d3 d7bd 9862 aa3d
00000100: 0af0 8abd 4f88 4f3d 3f90 253c bcde bebd
00000110: 515b 59bc 019c 053e e542 90bd 26fe 09be
00000120: 8639 9bbd cb8b 4a3d e2e3 ab3b f4e1 1ebd
00000130: df4c 3cbb fdf6 553d c77b f8bd cf1a 14be
00000140: 3c84 8c3d 42ce 663d b605 0cbd 7e3f 19bd
00000150: b1e0 c5bd 5caa a2bd 664f edbd fe11 0bbe
00000160: 73da b03c 5757 11be 44cb 473c 432e 2d3c
00000170: e331 e2bc dbef 2ebc 4077 d1bd fa30 a7ba
00000180: a5a7 0b3e d084 94bd 5582 2cbe 22c0 693d
00000190: 1344 b3bd 137d afbd 69fe 03bc 5f9c 263e
000001a0: f6c5 33bd 0350 ffbd d2dc f7bd 9512 173e
000001b0: bc81 8ebd a97d 563d 1cf7 b93d 662a f2bc
000001c0: 894b 123b 9b0d ac3d b3ea 073e 23ee 23be
000001d0: c6dc 17be 4d7b 4b3d 7983 56be 76bb 80bc
000001e0: ac8a 133e 67a7 f73c 3c82 9f3d 1287 adbc
000001f0: 1936 1b3e 1466 2a3d 7a84 af3c b6db 7f3d
00000200: 36bc e4bd 7b50 e83d a48a b2bb 17fb 243e
00000210: 367f 8f3d 33ce 19bd 321a 30be 89e0 1fbd
00000220: ee5d cfbd 7bb2 dbbd 9c14 91bd 8ade babd
00000230: 0a70 3d3e 7b36 333e 71f3 b2bd 8f85 c1bd
00000240: d834 5dbe 605b 193e 9973 3fbd 6d6c 4b3d
00000250: 6b29 35be 8cd8 13be 018c 553d 5cad c6bd
00000260: 2563 ccbc 72d5 54bd 4de7 9ebe 8909 0ebe
00000270: 5bb2 b6bb 142c 803d 50a3 64be 7c69 a93d
00000280: 389f 9d3c 6727 9d3d e583 f1bd 6cd4 96bd
00000290: 0647 87bc 1003 69bd fa1a 683e d9d5 83bc
000002a0: b388 cd3d 7dde 723d e60b 4f3d a28a 903e
000002b0: 0d65 0abe dce0 81bd 17ea 2d3d c287 29bc
000002c0: 1d96 b53d 2764 ad3d 7ec7 333e a3a0 b3bd
000002d0: d406 5c3d 5c89 59bd af0a 093e 2c9b b1bd
000002e0: 3155 0d3d 1e41 c8bd 2107 5b3e bbfb 81bd
000002f0: 4fcb 183e 88d8 04be 4a7f 7bbe 6ff8 773d
00000300: da57 c83b 7f86 ba3d fb5a 9c3d e00d 803d
00000310: e889 ae3c ec0c 303b 4d46 bebd 1c22 e8bd
00000320: f181 be3d f006 943e db08 bcbd 6d48 85bd
00000330: f75a 6b3d f462 733d d7ee e9bd a063 ddbd
00000340: cd99 2b3e 75a6 ddbc c6cf 1b3e cae8 36be
00000350: c3d8 75bd 034d 913d 7f4b 013e ca09 b4bd
00000360: 694c c2bd 4b6c 033d b478 c0bd fa78 17be
00000370: 4752 123d 7120 683c b143 2fbe 589e f93d
00000380: 1d5e 503d 3818 8abe 85f8 30be 4b3f 70be
00000390: 0aa1 083e e466 e239 3500 a53d 62c9 a0bd
000003a0: c509 0abd c0a7 94bd 493c 24bc b905 0ebe
000003b0: 83f6 fabc f3a7 2b3e db81 1b3d f211 8a3e
000003c0: 628d 673e 442b 94bb d690 6e3c e375 10be
000003d0: 9f43 81be 697a 7fbd 2d5f e0bd 3459 303d
000003e0: 2b98 b23d ab76 24be 3cec d83d 294c 3bbd
000003f0: 8328 eebd 6946 00be 71b9 d2bd 5d55 423e

lstm.bias_ih_l0 f4 [256]
0.03925927 0.1161362 -0.052228358 0.106591836 0.17885788 -0.017377963 -0.0025490103 0.0030128276
0.028807303 0.091412656 0.06197952 0.16581556 0.03799336 0.061127163 0.15147285 0.07868437
-0.03520049 0.07324995 0.08801764 0.024410896 0.19696349 0.062911205 0.027963096 0.12780549
-0.008509617 -0.08193729 0.1032679 -0.026231991 0.033842027 0.16506812 0.19177105 0.061904978
-0.042648535 0.056128897 0.08350007 0.05772656 0.0073532853 -0.054944526 -0.06606648 0.042483676
-0.02972411 0.10841179 0.03533258 0.050326176 -0.024846012 -0.022600701 -0.07580378 0.14493562
0.15376997 0.16509597 -0.06550845 -0.07185821 0.10461892 -0.06283149 0.019663362 -0.036522284
0.044265065 -0.07726146 0.07209953 0.14379144 0.1298178 -0.0015699521 0.019555835 0.004325025
0.15738851 -0.10480937 0.042613324 0.1514844 0.03489747 -0.055665065 0.176301 -0.021731157
-0.0296666 0.12410964 0.0169985 -0.02422647 0.19454823 -0.049748503 0.05534454 -0.09154984
0.18709728 0.057083517 0.08595222 0.07049188 0.060562503 -0.009123054 0.051297657 0.06921725
-0.019671647 0.0020491541 0.13265467 0.099531144 -0.070380904 0.074523136 0.12805101 0.114524946
0.14756784 0.0686527 0.05224872 -0.07995755 0.117483094 -0.016717752 0.043226764 0.13579488
0.14032942 0.0077540902 0.06056509 0.043292716 -0.027660865 -0.056209683 0.09005295 -0.040090185
-0.016455095 0.045614537 0.07842899 0.13139628 -0.04402571 -0.095941424 0.007327731 -0.02580279
0.1411836 0.080926575 0.18317814 0.06499867 0.006549771 0.030135712 0.013908438 -0.06280952
-0.13344628 -0.03710299 0.06282723 0.04211709 -0.047069915 0.10830151 0.048832998 -0.055872094
0.014848589 0.063012995 0.014961966 -0.12206106 0.16120078 0.055454973 -0.1370587 -0.04570202
-0.04622533 0.106446326 -0.068192445 -0.11040871 -0.08514999 -0.06021977 0.091563895 -0.13356328
-0.05274837 -0.09481173 0.04295946 -0.12960182 0.119836554 0.050063048 -0.035042215 0.12107536
0.064517505 -0.039462324 0.040113904 -0.072670385 0.014261659 -0.07673008 0.12243976 -0.051064588
0.04600512 -0.068731956 -0.019127805 0.11330988 0.10345342 0.046055816 0.052820228 0.066707596
0.09962241 -0.12328997 0.027384158 -0.08771227 -0.07869936 0.046404317 -0.05533087 -0.07059473
-0.0036900016 -0.12858994 0.06296601 0.02899373 -0.053674076 0.04842716 0.025422627 0.124052726
0.007971821 0.15267381 0.19307737 0.15189351 -0.005962577 -0.0296469 0.024262946 0.09050175
0.0068328134 0.056711998 0.06580958 -0.052566174 0.044496194 0.07628123 0.10870817 0.058117047
0.05923556 -0.049604934 0.028953522 0.16736846 0.031450674 -0.036066152 0.14260094 -0.022638546
0.11322478 -0.009912851 0.06907863 -0.05340733 -0.009172361 0.004476803 0.08313656 0.18850705
0.124527626 0.19129606 0.060526077 -0.015602019 -0.02378441 0.0107505685 0.09195721 0.08814487
0.12843709 0.1313385 0.064627714 0.030421311 0.09713593 0.047384895 0.14061818 0.09146474
0.032254256 0.14503124 -0.036255047 -0.034017183 0.21399546 -0.033706356 0.08533198 0.11859728
0.102531806 0.10313458 0.05653868 0.078169204 -0.022441883 0.14602742 0.028763654 0.029354937
00000000: 54ce 203d d1d8 ed3d 67ed 55bd d24c da3d
00000010: 8526 373e 3b5c 8ebc 4c0d 27bb dc72 453b
00000020: 4bfd eb3c 8f36 bb3d 3dde 7d3d 8ecb 293e
00000030: ed9e 1b3d 7a60 7a3d b31b 1b3e 4525 a13d
00000040: 642e 10bd 1204 963d 9842 b43d 5cf9 c73c
00000050: ccb0 493e 97d7 803d dd12 e53c 71df 023e
00000060: ec6b 0bbc bdce a7bd 1f7e d33d 79e4 d6bc
00000070: f09d 0a3d 9e07 293e a15f 443e 1390 7d3d
00000080: 3bb0 2ebd 6ae7 653d 1602 ab3d af72 6c3d
00000090: d4f3 f03b 830d 61bd dd4d 87bd 5d03 2e3d
000000a0: fa7f f3bc 0007 de3d e5b8 103d d222 4e3d
000000b0: dd89 cbbc 1b25 b9bc 033f 9bbd 016a 143e
000000c0: e075 1d3e eb0e 293e 4b29 86bd 662a 93bd
000000d0: 7242 d63d ccad 80bd 0f15 a13c 6498 15bd
000000e0: 494f 353d 423b 9ebd eba8 933d 103e 133e
000000f0: f5ee 043e dac6 cdba 8f33 a03c f0b8 8d3b
00000100: 742a 213e 4ca6 d6bd 4f8b 2e3d ba1e 1b3e
00000110: a6f0 0e3d 0d01 64bd 4088 343e 8a05 b2bc
00000120: 5f07 f3bc 322d fe3d 7040 8b3c 9776 c6bc
00000130: a737 473e 16c5 4bbd f5b0 623d 7c7e bbbd
00000140: 6e96 3f3e 68d0 693d b807 b03d 0c5e 903d
00000150: 6310 783d dd78 15bc 7e1d 523d c6c1 8d3d
00000160: 6f26 a1bc 1a4b 063b a0d6 073e fcd6 cb3d
00000170: dd23 90bd 969f 983d ce1f 033e 0e8c ea3d
00000180: 061c 173e c999 8c3d c102 563d c9c0 a3bd
00000190: fa9a f03d abf3 88bc 8c0e 313d d00d 0b3e
000001a0: 84b2 0f3e 0616 fe3b 1a13 783d b453 313d
000001b0: 0a99 e2bc 203c 66bd ae6d b83d 9b35 24bd
000001c0: d6cc 86bc 4fd6 3a3d 619f a03d bf8c 063e
000001d0: 4e54 34bd f07c c4bd 761d f03b 5f60 d3bc
000001e0: 6f92 103e d5bc a53d 0d93 3b3e 061e 853d
000001f0: 769f d63b 2bdf f63c 38e0 633c 47a2 80bd
00000200: 24a6 08be 4ef9 17bd 90ab 803d f882 2c3d
00000210: 62cc 40bd 2fcd dd3d 1c05 483d 23da 64bd
00000220: 7f47 733c f50c 813d 0923 753c 26fb f9bd
00000230: d111 253e c124 633d 1e59 0cbe 0b32 3bbd
00000240: c656 3dbd 8800 da3d 7ba8 8bbd f61d e2bd
00000250: 1e63 aebd 01a9 76bd da85 bb3d d0c4 08be
00000260: ad0e 58bd a72c c2bd 42f6 2f3d 57b6 04be
00000270: de6c f53d e90e 4d3d 6d88 0fbd 5cf6 f73d
00000280: c121 843d 3fa3 21bd 7a4e 243d 36d4 94bd
00000290: bca9 693c a924 9dbd b2c1 fa3d 1a29 51bd
000002a0: dd6f 3c3d 57c3 8cbd eab1 9cbc 030f e83d
000002b0: 63df d33d 06a5 3c3d 065a 583d fe9d 883d
000002c0: d606 cc3d 747f fcbd be54 e03c 7ea2 b3bd
000002d0: 212d a1bd 7412 3e3d 9fa2 62bd f893 90bd
000002e0: f4d3 71bb 15ad 03be 53f4 803d 4284 ed3c
000002f0: 59d9 5bbd 8f5b 463d 1d43 d03c 5b0f fe3d
00000300: 3e9c 023c 8656 1c3e 13b6 453e f989 1b3e
00000310: b961 c3bb 0ede f2bc 16c3 c63c fb58 b93d
00000320: cbe5 df3b d74a 683d 2cc7 863d a14f 57bd
00000330: a441 363d 5539 9c3d 64a2 de3d 240c 6e3d
00000340: fda0 723d 8b2e 4bbd f02f ed3c a362 2b3e
00000350: 6cd2 003d 1aba 13bd fb05 123e 7974 b9bc
00000360: 65e2 e73d 8369 22bc 1979 8d3d a5c1 5abd
00000370: ac47 16bc 25b2 923b 8043 aa3d fe07 413e
00000380: 5708 ff3d 1de3 433e 31ea 773d 9c9f 7fbc
00000390: 86d7 c2bc 2723 303c 1054 bc3d 4c85 b43d
000003a0: 0385 033e 9a7d 063e 895b 843d 1d36 f93c
000003b0: 34ef c63d aa16 423d 36fe 0f3e de51 bb3d
000003c0: 0a1d 043d 1283 143e 2c80 14bd 9a55 0bbd
000003d0: a021 5b3e ad0f 0abd 88c2 ae3d 21e3 f23d
000003e0: 32fc d13d 3938 d33d 1a95 673d 2d17 a03d
000003f0: 0ad8 b7bc 3688 153e c1a1 eb3c c479 f03c

lstm.bias_hh_l0 f4 [256]
0.08277419 0.10647648 -0.007201857 0.0596063 -0.020394882 0.08255147 0.15010428 -0.08919295
-0.018364957 0.03552471 0.18151094 -0.044502523 -0.0009971312 0.054524772 0.02003329 -0.054317188
0.111536615 0.039219603 -0.042942725 0.15700093 -0.043629806 -0.029623184 0.053451292 -0.028775118
0.08370405 0.023719976 -0.04393306 -0.039479654 0.0005537952 0.023856787 0.11497397 0.1586935
-0.030026158 0.022347316 -0.04712297 0.008586565 0.15969007 0.0032006914 0.04951975 0.16002643
0.04203277 -0.045753136 0.1575058 0.105702616 0.09608475 0.10263321 -0.04752832 -0.005979834
0.17471656 -0.020971533 0.05282702 -0.003809933 0.12221758 0.04712122 0.17332588 -0.047529493
0.15366565 0.14953625 -0.010949708 0.14831823 0.012047232 0.18934026 -0.044631515 0.0091545805
0.044355687 -0.05890445 0.14090832 0.085486606 -0.020781746 -0.059575386 0.014341226 0.053448133
-0.123603106 0.10175976 0.025078166 0.07737021 -0.029425783 -0.055910535 0.08128738 0.006860161
0.115609765 0.058877118 0.07922657 0.13966486 0.17129408 -0.016099842 0.073084965 0.14177328
-0.045809418 0.07105628 -0.02537563 0.116991326 0.06273684 0.037756022 0.10195022 -0.013595409
0.13196787 0.013490267 0.030245695 -0.087455966 0.0513811 0.046379827 -0.02354312 0.013423417
0.016044335 0.029199446 0.054039165 -0.04309588 -0.078888774 0.010377092 0.036242843 0.059617557
-0.04965407 0.15842026 0.045137253 0.036562327 0.04052557 0.03612684 0.035206426 -0.0723024
-0.058363236 -0.00892813 0.06900811 0.054211926 0.14498436 0.04572358 0.053661913 0.07667111
0.057979584 -0.030546244 -0.0004588176 0.054105997 0.06533548 0.0070512337 0.03981279 -0.081634834
-0.0262611 -0.1008681 0.08083873 -0.1322916 0.042048782 0.018401556 -0.1298432 0.008141201
0.009786918 0.020310562 0.038669534 0.095416754 -0.0810242 -0.13623878 -0.08761896 -0.12447867
0.114308015 -0.09253699 -0.05590328 0.11312244 0.08932477 -0.024952436 -0.13114507 0.1330294
0.08264954 -0.12965876 -0.082478195 0.018011773 -0.014225347 -0.056663144 0.06500763 0.027404837
0.078498684 -0.08182079 -0.0680596 0.1254486 -0.127516 -0.015390485 0.11561767 -0.061619107
-0.03519255 0.008536653 -0.035406165 -0.02863048 0.05238354 0.1048427 0.079661325 -0.07884613
0.013152567 -0.010781456 0.061459973 -0.1143125 0.092516765 -0.01980783 -0.045754626 -0.06562387
0.081028685 0.119819514 0.068105325 0.13721839 0.18075766 0.05200583 0.1170035 -0.036436465
0.058360625 0.094120674 0.16176197 0.14052479 0.018728442 0.02180957 -0.0073667457 0.16433686
0.06385395 0.10023184 0.15135878 0.25830907 0.21183196 0.07277584 0.11015586 -0.060644854
0.118933685 -0.031714756 0.043502565 0.046271052 -0.06078856 -0.03984762 0.0604144 0.023948627
0.12655365 0.19573073 -0.049745265 -0.06145111 0.21367809 0.010622675 -0.049192224 0.09945704
0.06912577 0.08705339 -0.045744862 0.18452534 0.122359924 0.18482229 0.13263695 -0.0002839085
0.1646683 0.13837783 0.17573933 -0.028549705 0.12412982 0.082688674 0.058435053 0.03428733
0.19416504 0.09729075 0.16148964 0.08399572 0.09268684 0.1816029 0.03272035 0.047770657
00000000: 8485 a93d 5710 da3d 8efd ebbb bc25 743d
00000010: 2b13 a7bc bf10 a93d f0b4 193e cbaa b6bd
00000020: 1b72 96bc 5c82 113d 01de 393e 4748 36bd
00000030: 2cb2 82ba 5e55 5f3d db1c a43c b37b 5ebd
00000040: 4f6d e43d bca4 203d b6e4 2fbd dac4 203e
00000050: 2bb5 32bd 52ac f2bc beef 5a3d ccb9 ebbc
00000060: 076d ab3d 6550 c23c 27f3 33bd 6bb5 21bd
00000070: 912c 113a 4f6f c33c 7977 eb3d 8d80 223e
00000080: 6bf9 f5bc b811 b73c 0404 41bd aaae 0c3c
00000090: cb85 233e b1c2 513b 39d5 4a3d f8dd 233e
000000a0: 8e2a 2c3d a467 3bbd 3349 213e 9d7a d83d
000000b0: 15c8 c43d 5c31 d23d 0ead 42bd 7cf2 c3bb
000000c0: e6e8 323e 7ecc abbc 2561 583d 12b0 79bb
000000d0: 364d fa3d 2e02 413d 577c 313e 49ae 42bd
000000e0: 875a 1d3e 0820 193e 6766 33bc bce0 173e
000000f0: c161 453c 6ae2 413e 89cf 36bd 18fd 153c
00000100: 4fae 353d cb45 71bd 454a 103e 9a13 af3d
00000110: 7b3e aabc 5205 74bd 76f7 6a3c 6eec 5a3d
00000120: a023 fdbd 6c67 d03d ba70 cd3c 4674 9e3d
00000130: 570e f1bc 7202 65bd ff79 a63d 34cb e03b
00000140: d0c4 ec3d 2229 713d 8a41 a23d 4e04 0f3e
00000150: b767 2f3e d1e3 83bc 92ad 953d 042d 113e
00000160: a8a2 3bbd f485 913d 8ee0 cfbc 2699 ef3d
00000170: 2c7c 803d 0fa6 1a3d 47cb d03d 47bf 5ebc
00000180: 9622 073e 4806 5d3c d2c5 f73c 1d1c b3bd
00000190: fd74 523d c6f8 3d3d 80dd c0bc e4ed 5b3c
000001a0: 696f 833c ad33 ef3c 2c58 5d3d 4e85 30bd
000001b0: 7090 a1bd ae04 2a3c 6073 143d 8a31 743d
000001c0: 1162 4bbd ec38 223e d7e1 383d 61c2 153d
000001d0: 24fe 253d bdf9 133d 9d34 103d 4813 94bd
000001e0: 4a0e 6fbd 4b47 12bc 2054 8d3d 530d 5e3d
000001f0: c876 143e a648 3b3d 98cc 5b3d be05 9d3d
00000200: 007c 6d3d 1e3c fabc 758d f0b9 409e 5d3d
00000210: 9cce 853d 090e e73b bc12 233d 2a30 a7bd
00000220: 8521 d7bc ef93 cebd c78e a53d 7377 07be
00000230: 583b 2c3d dcbe 963c 9ef5 04be ac62 053c
00000240: 4f59 203c 5662 a63c f263 1e3d dc69 c33d
00000250: 04f0 a5bd 2e82 0bbe 9271 b3bd acee febd
00000260: 521a ea3d 0984 bdbd d6fa 64bd bdac e73d
00000270: e8ef b63d 0d69 ccbc e54a 06be dc38 083e
00000280: 2944 a93d 44c5 04be 54ea a8bd 6d8d 933c
00000290: 6e11 69bc 9d17 68bd b822 853d 1c80 e03c
000002a0: ebc3 a03d a991 a7bd d562 8bbd 9975 003e
000002b0: 8e93 02be 5f28 7cbc f5c8 ec3d 5164 7cbd
000002c0: 1026 10bd 51dd 0b3c 0e06 11bd 788a eabc
000002d0: 1f90 563d c5b7 d63d 7a25 a33d 147a a1bd
000002e0: dd7d 573c b4a4 30bc 74bd 7b3d ac1c eabd
000002f0: 6e79 bd3d 0844 a2bc 3469 3bbd cf65 86bd
00000300: 5ef2 a53d ef63 f53d ce7a 8b3d fa82 0c3e
00000310: 8918 393e 1104 553d 889f ef3d 673e 15bd
00000320: 8d0b 6f3d 57c2 c03d eea4 253e bbe5 0f3e
00000330: 646c 993c fca9 b23c be64 f1bb ec47 283e
00000340: dcc5 823d 5a46 cd3d ccfd 1a3e 1641 843e
00000350: 7aea 583e 800b 953d 6599 e13d bd66 78bd
00000360: 8193 f33d 55e7 01bd bf2f 323d b786 3d3d
00000370: 6dfd 78bd 4237 23bd 1775 773d e92f c43c
00000380: 4897 013e a36d 483e b1c1 4bbd 29b4 7bbd
00000390: 6ece 5a3e ba0a 2e3c c97d 49bd 22b0 cb3d
000003a0: d091 8d3d 0c49 b23d f75e 3bbd 36f4 3c3e
000003b0: d797 fa3d 0e42 3d3e fbd1 073e 8ed9 94b9
000003c0: cf9e 283e ebb2 0d3e 03f5 333e 12e1 e9bc
000003d0: c637 fe3d ae58 a93d 9859 6f3d df70 0c3d
000003e0: 33d3 463e 5f40 c73d 8a5d 253e f305 ac3d
000003f0: 99d2 bd3d 1cf6 393e c605 063d 2aab 433d

fc.weight f4 [1, 64]
-0.06957297 0.2511749 0.28406435 0.1808919 0.24819382 -0.20565836 0.025238013 0.102558926
-0.19707853 -0.15145683 0.33928227 -0.2221221 -0.13978395 0.11222178 0.17478468 0.37631825
0.29946923 0.2157245 -0.16282086 -0.3332301 -0.21628217 0.22873038 0.256572 0.21360856
-0.30936068 -0.22023045 -0.16857491 -0.25566626 0.13615623 0.20569332 0.19071092 -0.22819957
-0.1762349 -0.2169806 0.19586958 0.18222106 0.323913 -0.21826403 -0.24678436 -0.23004901
0.014254624 0.19518878 0.15580389 -0.2527963 -0.349899 -0.24112214 0.34482095 0.37520733
0.28343767 -0.28812203 0.21333419 -0.2996739 0.297662 -0.29775783 -0.33904925 -0.15980102
-0.26855367 -0.19391558 0.12804212 0.24650136 0.22160663 0.11868996 -0.20472011 -0.2912552
00000000: 467c 8ebd ff99 803e e270 913e ba3b 393e
00000010: 8526 7e3e 1b98 52be f3bf ce3c 6a0a d23d
00000020: f4ce 49be 8017 1bbe 68b6 ad3e fa73 63be
00000030: 8623 0fbe 88d4 e53d c1fa 323e c9ac c03e
00000040: 0854 993e e2e6 5c3e 83ba 26be 239d aabe
00000050: 1379 5dbe 4c38 6a3e 685d 833e 34bc 5a3e
00000060: 8664 9ebe 1784 61be e79e 2cbe b0e6 82be
00000070: 8a6c 0b3e 45a1 523e b949 433e 26ad 69be
00000080: ec76 34be 2a30 5ebe 0992 483e 2898 3a3e
00000090: edd7 a53e 9b80 5fbe 0ab5 7cbe f891 6bbe
000000a0: 3a8c 693c 91df 473e 0e8b 1f3e 846e 81be
000000b0: f625 b3be b9e8 76be 5f8c b03e 2d1b c03e
000000c0: be1e 913e bb84 93be 4774 5a3e db6e 99be
000000d0: 2767 983e b773 98be dd97 adbe e1a2 23be
000000e0: de7f 89be ce91 46be 791d 033e da6a 7c3e
000000f0: d9ec 623e b913 f33d 26a2 51be 671f 95be
